…
 - 31s - loss: -3.8996e+01 - acc: 0.1999 - val_loss: -6.3770e+01 - val_acc: 0.0000e+00
Epoch 28/30
 - 26s - loss: -3.8996e+01 - acc: 0.1999 - val_loss: -6.3770e+01 - val_acc: 0.0000e+00
Epoch 29/30
 - 25s - loss: -3.8996e+01 - acc: 0.1999 - val_loss: -6.3770e+01 - val_acc: 0.0000e+00
Epoch 30/30
 - 26s - loss: -3.8996e+01 - acc: 0.1999 - val_loss: -6.3770e+01 - val_acc: 0.0000e+00
_________________________________________________________________
Layer (type)                 Output Shape              Param #
=================================================================
embedding_1 (Embedding)      (None, 380, 32)           121600
_________________________________________________________________
dropout_1 (Dropout)          (None, 380, 32)           0
_________________________________________________________________
lstm_1 (LSTM)                (None, 32)                8320
_________________________________________________________________
dense_1 (Dense)              (None, 256)               8448
_________________________________________________________________
dropout_2 (Dropout)          (None, 256)               0
_________________________________________________________________
dense_2 (Dense)              (None, 1)                 257
=================================================================
Total params: 138,625
Trainable params: 138,625
Non-trainable params: 0
_________________________________________________________________
None
evaluate model
  32/5448 [..............................] - ETA: 33s
  64/5448 [..............................] - ETA: 33s
  96/5448 [..............................] - ETA: 33s
 128/5448 [..............................] - ETA: 34s
…
